Training Dataset: /Users/keelanoriordan/Desktop/GitHub_MacPro.nosync/242-Final-Project/DATASET/nuc/single_rater.pkl
Model Hyperparameters: Optimizer = adam, Learning Rate4 = 0.0001, Batch Size = 128, epoch = 1000, l2 norm = 1e-05
==========================================================================================
Layer (type:depth-idx)                   Output Shape              Param #
==========================================================================================
├─Sequential: 1-1                        [-1, 1016, 1, 1]          --
|    └─Conv2d: 2-1                       [-1, 3, 40, 40]           444
|    └─BatchNorm2d: 2-2                  [-1, 3, 40, 40]           6
|    └─ReLU: 2-3                         [-1, 3, 40, 40]           --
|    └─MaxPool2d: 2-4                    [-1, 3, 20, 20]           --
|    └─DenseBlock: 2-5                   [-1, 195, 20, 20]         --
|    └─TransitionBlock: 2-6              [-1, 97, 10, 10]          --
|    |    └─Conv2d: 3-1                  [-1, 97, 20, 20]          19,012
|    |    └─AvgPool2d: 3-2               [-1, 97, 10, 10]          --
|    └─DenseBlock: 2-7                   [-1, 481, 10, 10]         --
|    └─TransitionBlock: 2-8              [-1, 240, 5, 5]           --
|    |    └─Conv2d: 3-3                  [-1, 240, 10, 10]         115,680
|    |    └─AvgPool2d: 3-4               [-1, 240, 5, 5]           --
|    └─DenseBlock: 2-9                   [-1, 1008, 5, 5]          --
|    └─TransitionBlock: 2-10             [-1, 504, 2, 2]           --
|    |    └─Conv2d: 3-5                  [-1, 504, 5, 5]           508,536
|    |    └─AvgPool2d: 3-6               [-1, 504, 2, 2]           --
|    └─DenseBlock: 2-11                  [-1, 1016, 2, 2]          --
|    └─BatchNorm2d: 2-12                 [-1, 1016, 2, 2]          2,032
|    └─ReLU: 2-13                        [-1, 1016, 2, 2]          --
|    └─AdaptiveAvgPool2d: 2-14           [-1, 1016, 1, 1]          --
├─Linear: 1-2                            [-1, 3]                   3,051
==========================================================================================
Total params: 648,761
Trainable params: 648,761
Non-trainable params: 0
Total mult-adds (M): 60.05
==========================================================================================
Input size (MB): 0.07
Forward/backward pass size (MB): 0.68
Params size (MB): 2.47
Estimated Total Size (MB): 3.23
==========================================================================================
…
